hw1/linear_regression_weights3.48676.npz (npz, 900 bytes, 2 tensors)

weights f8 [48]
00000000: d2c2 a065 0275 c93f 19c1 8ce0 8155 a7bf
00000010: f7bd f457 a25c d53f 1c20 a10e a68a bd3f
00000020: 5318 cd33 bcb3 c6bf 666d 4c8f 317f cb3f
00000030: 0674 adcc 33e2 d3bf 48c9 679e 7b79 b93f
00000040: bdcb ad09 40ee 723f 16de 0a61 ff42 d7bf
00000050: bcb5 8328 ef9a 9c3f 72ab 9f28 5b27 cb3f
00000060: 94b9 a7a1 45cd e03f 243b 7bfe dc9b b23f
00000070: 7825 a0b5 320e dabf 44b9 231f 8176 c5bf
00000080: b843 db54 64fe d4bf d791 05ea fbc0 ce3f
00000090: f9f4 fb51 5b68 d43f 8426 2879 7757 dabf
000000a0: 56b6 8e13 e1de c2bf aa53 4891 36a6 ccbf
000000b0: e2a8 734c a5f5 c63f 4df8 fdbd 284d d63f
000000c0: a299 67e1 d037 b9bf 1ccd 53be 34dd d1bf
000000d0: 82c9 1dfb dc62 d63f 3abc c1d2 7474 cdbf
000000e0: 49e8 83f9 5c06 ca3f 793a a0f2 baca e23f
000000f0: 1d31 ed06 016a aa3f 26bc 1c2a 8f5b b63f
00000100: 14cc dbc6 52d6 c5bf e130 2fae ff27 e3bf
00000110: b147 7fae 4452 bdbf 13cf 2812 876e db3f
00000120: 93f4 e22d 7866 debf 37e6 8d9c c36a 853f
00000130: 1505 0673 9947 acbf 6ded 3381 7799 eabf
00000140: 2c49 3ccb d580 483f 0a53 bb9f b370 f13f
00000150: 73ad 7480 5f69 e43f ee3a 4859 04ed d23f
00000160: 3d3b fab0 a5a8 d33f bd70 8486 8bb7 0640
00000170: f48d b358 dd0f 973f 4b7e ffe8 fd70 1240
0.1988833423834167 -0.04557424417578399 0.33377894010024484 0.11539686066782945 -0.17736008195260186 0.2148191404056476 -0.3106812952808585 0.09950993172950462
0.004621744296730177 -0.36346420742799646 0.02793477711468538 0.21213855250911312 0.5250576169326444 0.07269078457759953 -0.40711658226845016 -0.16767896671758298
-0.3280268505741861 0.24026440550654968 0.31886942869444074 -0.4115885432407611 -0.14742673354105545 -0.2238224229228341 0.17937151177404248 0.34845942071831787
-0.09850793364566937 -0.2791263445535195 0.34978413127023356 -0.2301164654813606 0.2033191889129873 0.587247346762367 0.051589996428989184 0.0873345830739117
-0.1706031294812368 -0.598632660106457 -0.11453656444726225 0.4286210706079469 -0.47500423890216686 0.010457542624624156 -0.05523376015754359 -0.8312337420933723
0.000747780219599902 1.0900150527497225 0.6378629216100492 0.29571636885604746 0.3071684101386614 2.8396215924422834 0.022521456278708343 4.610343590349269

bias f8 []
00000000: e04a 1170 2a73 2640
11.22493314944353
