hw2/ae_weights.pth (torch, 196322 bytes, 52 tensors)

encoder.0.weight f4 [128, 16]
0.11560347 -0.11266783 0.102786705 0.22180226 0.058048826 -0.20478949 -0.14146121 -0.19275461
-0.02091746 0.14176375 0.18923828 0.17327166 0.123330146 -0.19018616 0.0479144 0.33953446
0.21220508 0.28934723 -0.028896442 -0.20536816 0.3839778 0.024136897 0.027154054 0.18328047
-0.14074363 0.16780044 0.033899922 -0.09148706 -0.12719543 0.20897238 -0.20178542 0.0030982038
-0.29688898 -0.1976383 0.22093895 -0.15181307 0.14014015 -0.09935308 -0.13462853 -0.15958615
0.2659704 -0.14140937 -0.16201799 -0.19346489 0.2006829 -0.15087529 -0.10206389 -0.062428277
-0.035046287 -0.12531365 0.28108346 -0.02741459 0.08938931 0.2772018 -0.056030255 -0.001701687
0.23187514 -0.14023277 0.26034707 0.117103204 -0.0747321 -0.24845448 0.03537633 0.057113215
0.12767838 0.10771034 0.38767496 -0.13494278 0.13130504 0.12560359 -0.040580418 0.010578021
0.052639436 -0.09859298 0.013591642 0.041903872 0.021097876 -0.2287282 -0.2072168 -0.11488814
-0.18350506 -0.09065865 -0.021985086 -0.124740206 0.17372324 -0.14786547 -0.183199 -0.14121988
0.17342268 0.048071515 -0.19366139 0.030238245 -0.11109957 0.09801399 -0.23228513 -0.20088439
0.075976074 0.18902516 -0.31417564 -0.13785148 -0.22377543 -0.043015614 -0.073846996 0.25113142
-0.1747842 -0.020289242 0.16936608 0.1202859 0.07320321 0.07554554 0.18052506 0.09396688
0.08484497 -0.053517345 0.29515478 0.020517755 0.11717966 0.021197794 -0.23109953 -0.27496186
0.23875058 -0.19982666 -0.11412377 -0.21591245 0.097149566 0.009626872 0.14016452 0.03454335
-0.06721997 -0.059783086 0.105357215 -0.13477904 -0.0029410499 -0.14653638 0.1140594 -0.1671529
0.2744968 0.1855275 -0.11822184 -0.21074273 0.042654987 -0.14384235 0.03614622 -0.10063882
0.27723745 -0.35026592 -0.16351551 -0.14941368 -0.028665729 -0.017398773 0.2065706 -0.08439835
-0.15309094 0.036600187 -0.037509732 0.19346157 -0.16824982 0.16275322 -0.13871327 -0.36654696
0.12071656 -0.049523044 -0.25669748 0.27169323 0.24468882 0.023686633 0.084906876 -0.13495532
0.05254901 0.15432769 0.1656302 0.00020358746 -0.10268681 -0.22942229 0.05398578 0.12031227
0.28430665 -0.24623667 -0.13822763 -0.082618 -0.1785029 -0.05218536 -0.089903675 0.21800235
0.22242026 -0.25241232 -0.015491006 -0.21191569 -0.24262813 0.2116972 0.12211944 -0.07494613
-0.15795398 0.049575966 -0.3630683 -0.24400935 -0.03825885 -0.16215692 0.24312516 0.045598105
-0.008600341 -0.19886835 0.16871314 0.19810635 0.11462021 0.17448045 0.026407178 -0.13425377
-0.1421985 0.16498484 -0.0075270133 -0.22879839 -0.33749557 0.14958934 -0.18024747 0.06647322
-0.11164424 -0.103665724 0.17425059 -0.21505217 -0.031679645 0.35726425 -0.27316907 -0.06593911
0.07028381 -0.15903524 -0.11751386 0.14811094 0.021249406 -0.21283004 -0.10068354 0.1392785
-0.07377018 0.25538442 -0.23256384 -0.23885778 -0.15816964 -0.034126334 -0.30767944 0.19368838
-0.28441575 0.15352581 -0.25492823 -0.16318208 0.0307612 -0.07466246 0.2188453 -0.09011057
-0.08219076 -0.095412575 0.022177665 -0.16288497 0.013228996 -0.097131915 -0.23273392 0.23666145
00000000: 83c1 ec3d 64be e6bd d681 d23d 2220 633e
00000010: 9bc4 6d3d 56b4 51be 35db 10be 7761 45be
00000020: 185b abbc 842a 113e aec7 413e 206e 313e
00000030: 8494 fc3d 29c0 42be e441 443d 76d7 ad3e
00000040: 4a4c 593e 5225 943e 3bb8 ecbc 084c 52be
00000050: bd98 c43e beba c53c 2e72 de3c e0ad 3b3e
00000060: 191f 10be e1d3 2b3e a5da 0a3d 915d bbbd
00000070: 853f 02be dbfc 553e d6a0 4ebe 3c0b 4b3b
00000080: d501 98be b261 4abe d23d 623e e374 1bbe
00000090: e680 0f3e a179 cbbd 10dc 09be 8d6a 23be
000000a0: 462d 883e 9ecd 10be 0be8 25be a91b 46be
000000b0: d17f 4d3e 0d7f 1abe df06 d1bd cbb4 7fbd
000000c0: b28c 0fbd 3952 00be 2cea 8f3e 9094 e0bc
000000d0: be11 b73d 65ed 8d3e fb7f 65bd 240b dfba
000000e0: ad70 6d3e 2e99 0fbe 364c 853e ced3 ef3d
000000f0: 250d 99bd da6a 7ebe c5e6 103d 8cef 693d
00000100: 1fbe 023e 3d97 dc3d 557d c63e 712e 0abe
00000110: d474 063e 3a9e 003e a737 26bd 704f 2d3c
00000120: 739c 573d 1eeb c9bd 7aaf 5e3c 65a3 2b3d
00000130: 74d5 ac3c ba37 6abe a430 54be 794a ebbd
00000140: c0e8 3bbe 3eab b9bd 111a b4bc cb77 ffbd
00000150: 81e4 313e 0c6a 17be 8598 3bbe f29b 10be
00000160: b795 313e a3e6 443d 2c4f 46be 32b6 f73c
00000170: 2c88 e3bd 8fbb c83d 27dc 6dbe a3b4 4dbe
00000180: 5899 9b3d d08f 413e a1db a0be f028 0dbe
00000190: 6325 65be 2431 30bd 183d 97bd 4c94 803e
000001a0: a1fa 32be a035 a6bc 4d6e 2d3e 7458 f63d
000001b0: 91eb 953d 9fb7 9a3d 90db 383e b571 c03d
000001c0: 33c3 ad3d 0135 5bbd 871e 973e da14 a83c
000001d0: e4fb ef3d ffa6 ad3c 5ba5 6cbe cdc7 8cbe
000001e0: 087b 743e 5c9f 4cbe b9b9 e9bd 2718 5dbe
000001f0: 5af6 c63d 07ba 1d3c 4a87 0f3e 547d 0d3d
00000200: a0aa 89bd 1cdf 74bd 86c5 d73d 8403 0abe
00000210: a1be 40bb a20d 16be fa97 e93d 212a 2bbe
00000220: d88a 8c3e ecfa 3d3e 4b1e f2bd f1cc 57be
00000230: ffb6 2e3d 694b 13be 0f0e 143d ba1b cebd
00000240: 11f2 8d3e 0e56 b3be 9c70 27be e6ff 18be
00000250: 64d4 eabc df87 8ebc 3e87 533e 0bd9 acbd
00000260: dfc3 1cbe 14ea 153d cea3 19bd ca1a 463e
00000270: ae49 2cbe c8a8 263e da0a 0ebe 0bac bbbe
00000280: 3e3a f73d add8 4abd da6d 83be 601b 8b3e
00000290: b58f 7a3e 780a c23c a8e3 ad3d ba31 0abe
000002a0: a13d 573d 1408 1e3e f79a 293e 187a 5539
000002b0: 764d d2bd aded 6abe 3120 5d3d 4866 f63d
000002c0: a490 913e 7725 7cbe 8b8b 0dbe a033 a9bd
000002d0: 77c9 36be 51c0 55bd 6b1f b8bd 023c 5f3e
000002e0: 23c2 633e 303c 81be fdcd 7dbc 6d00 59be
000002f0: 8273 78be 27c7 583e c219 fa3d 5b7d 99bd
00000300: b0be 21be 2b10 4b3d 17e4 b9be 96dd 79be
00000310: 50b5 1cbd 770c 26be cdf5 783e 14c5 3a3d
00000320: 72e8 0cbc 25a4 4bbe 23c3 2c3e 64dc 4a3e
00000330: 00be ea3d 01ab 323e de53 d83c d279 09be
00000340: 7c9c 11be c9f1 283e 2aa5 f6bb 204a 6abe
00000350: 38cc acbe f32d 193e cb92 38be 1d23 883d
00000360: bca5 e4bd b24e d4bd bf6e 323e a336 5cbe
00000370: 84c2 01bd 57eb b63e d1dc 8bbe 160b 87bd
00000380: f5f0 8f3d 22da 22be 1bab f0bd 65aa 173e
00000390: 3c13 ae3c 1ef0 59be 2c33 cebd 069f 0e3e
000003a0: d214 97bd bfc1 823e 3725 6ebe 2297 74be
000003b0: 39f7 21be 0ec8 0bbd 2988 9dbe 3f56 463e
000003c0: f19e 91be df35 1d3e f485 82be 3419 27be
000003d0: e9fe fb3c a2e8 98bd fb18 603e e48b b8bd
000003e0: a153 a8bd ab67 c3bd efad b53c 51cb 26be
000003f0: 6ebe 583c 19ed c6bd cd51 6ebe 6157 723e

encoder.0.bias f4 [128]
0.22427735 0.21445954 0.11515306 0.005625254 0.04202371 0.016564222 0.02135162 -0.17593633
-0.06692752 0.24015102 0.019499999 -0.09555784 0.08514645 -0.15552492 -0.047132913 0.044882637
-0.012286054 0.19846487 0.113129504 -0.101969294 -0.2055575 0.044459917 -0.102612354 0.2131597
0.24134362 -0.20534422 0.1703812 -0.0018727812 -0.027978519 0.10531141 -8.599322e-05 -0.17862816
-0.20290647 0.17771447 -0.02942467 -0.073252216 -0.20007685 0.100050494 -0.23583245 -0.1951593
0.23082678 0.120123215 -0.05441557 -0.10169093 -0.040837105 -0.21802379 0.068793476 -0.039118227
-0.0021615187 0.1144934 0.101698466 -0.06927358 0.23140302 0.07202467 -0.18597479 0.23164502
-0.19891912 -0.027080601 0.22141072 -0.16991657 -0.23313393 -0.03792233 -0.24486075 -0.088395365
0.038091313 -0.21408327 -0.22055238 -0.12045291 -0.06311416 0.14727992 -0.07514719 0.012212477
-0.14396022 -0.07405142 0.2119419 0.09653362 0.025153574 -0.049336027 -0.1058665 -0.12787616
0.07839296 0.0437515 -0.16088027 -0.21538621 -0.07472929 -0.19777139 -0.07868382 0.041968968
-0.14395471 0.004545516 -0.05880222 -0.23820962 0.087945305 -0.052204803 -0.19989939 -0.241719
0.0045719827 0.24347621 0.021323467 -0.09720584 0.13040814 -0.24159582 -0.073771775 -0.14731044
0.09980774 -0.0080514345 -0.2179204 0.05256031 -0.06196227 0.056440692 0.02348563 0.009202722
0.22213213 0.14071654 -0.074140154 -0.17706409 0.08539185 -0.048369154 0.09710338 0.12695916
-0.050520808 0.10430794 0.039745923 -0.20907351 0.19999762 0.07184714 -0.057557497 0.23350903
00000000: f6a8 653e 489b 5b3e 5ed5 eb3d 0d54 b83b
00000010: 0e21 2c3d b1b1 873c 98e9 ae3c a728 34be
00000020: 4c11 89bd 26ea 753e 76be 9f3c d4b3 c3bd
00000030: 4361 ae3d ed41 1fbe 710e 41bd dbd6 373d
00000040: 724b 49bc 603a 4b3e 71b0 e73d 47d5 d0bd
00000050: aa7d 52be 9a1b 363d 6d26 d2bd 8946 5a3e
00000060: c822 773e c145 52be 6978 2e3e 1c78 f5ba
00000070: 3533 e5bc 82ad d73d 4257 b4b8 4dea 36be
00000080: b7c6 4fbe c8fa 353e 010c f1bc 4205 96bd
00000090: f2e0 4cbe 46e7 cc3d 107e 71be d7d7 47be
000000a0: db5d 6c3e 2903 f63d dce2 5ebd 5643 d0bd
000000b0: cf44 27bd a141 5fbe 98e3 8c3d 6f3a 20bd
000000c0: 44a8 0dbb 847b ea3d 4947 d03d 4fdf 8dbd
000000d0: eaf4 6c3e ac81 933d 2d70 3ebe 5a34 6d3e
000000e0: 74b1 4bbe 23d8 ddbc 7eb9 623e 9cfe 2dbe
000000f0: a9ba 6ebe 7254 1bbd c7bc 7abe a108 b5bd
00000100: a305 1c3d a538 5bbe 7cd8 61be 04b0 f6bd
00000110: ff41 81bd 8cd0 163e c5e6 99bd d716 483c
00000120: 4f6a 13be 45a8 97bd 4c07 593e 6bb3 c53d
00000130: de0e ce3c 9314 4abd 89d0 d8bd f8f1 02be
00000140: 7d8c a03d c634 333d ccbd 24be 348e 5cbe
00000150: ac0b 99bd 9584 4abe fc24 a1bd a7e7 2b3d
00000160: dd68 13be 8df2 943b 99da 70bd 39ed 73be
00000170: ab1c b43d b4d4 55bd 6db2 4cbe 2f85 77be
00000180: 92d0 953b d451 793e 8dae ae3c db13 c7bd
00000190: b689 053e e564 77be a815 97bd 8cd8 16be
000001a0: 0068 cc3d 2aea 03bc 8626 5fbe 7b49 573d
000001b0: 26cc 7dbd 5b2e 673d f064 c03c 04c7 163c
000001c0: 9b76 633e ff17 103e cbd6 97bd 4a50 35be
000001d0: ece1 ae3d bc1e 46bd 23de c63d 9501 023e
000001e0: e8ee 4ebd 679f d53d 9fcc 223d 5e17 56be
000001f0: 2dcc 4c3e 9824 933d 69c1 6bbd fe1c 6f3e

encoder.1.weight f4 [128]
0.9126014 1.006945 0.94478554 0.93536294 0.9575498 1.0769843 1.005317 0.94295377
0.963355 0.97457653 0.8717805 1.0451213 0.9894379 0.93027943 1.0712603 1.0783663
0.94943243 1.0776439 1.1229527 0.9985852 1.0167162 1.029329 1.0291207 1.1056335
0.97182435 1.0096889 0.95983464 1.0302234 0.99386406 0.9857767 0.9604515 1.016578
0.9541827 1.0667881 1.017899 1.0729498 0.9949074 0.9620056 0.9057872 1.0328665
1.0593272 1.0592226 0.98247826 1.0350096 0.94374835 0.94145685 0.95664597 1.0494984
0.94691086 1.0450889 0.98680186 0.9634661 0.994209 1.0652266 0.9418548 0.93382853
1.0307668 0.9591528 0.9378848 1.0261627 1.0334241 1.0319303 0.8550061 0.9816589
0.9992495 0.90893024 0.94655156 1.0299498 0.97221243 0.95440745 1.0245337 1.0028837
0.99663156 1.0113429 1.01242 0.92774445 1.0276506 0.9370761 1.0923499 1.0105307
1.1046795 1.0083433 0.923118 1.0658383 1.0360724 1.0160242 1.0229114 0.9800417
0.99374896 1.0240449 1.0266185 0.941325 0.94940776 0.926172 0.9779775 0.95569396
1.0446777 0.99133265 1.0761139 1.0387594 1.1168458 1.0721612 0.9671358 1.0877553
1.0135832 1.0466111 1.0023415 1.0467669 1.0667183 0.9249998 1.0264552 0.9497895
0.8693636 0.93677336 0.9159993 1.0655874 1.005594 0.90271837 0.815453 0.96792233
0.9455842 1.0296501 0.98305595 1.0853406 1.0047501 1.0291297 1.0137011 1.0111191
00000000: 3fa0 693f 93e3 803f 77dd 713f f273 6f3f
00000010: fc21 753f 9fda 893f 3aae 803f 6b65 713f
00000020: 6f9e 763f d97d 793f 022d 5f3f 89c6 853f
00000030: cd4b 7d3f cb26 6e3f 0f1f 893f e807 8a3f
00000040: 010e 733f 3cf0 893f eabc 8f3f 48a3 7f3f
00000050: c223 823f 0dc1 833f 3aba 833f 6685 8d3f
00000060: 7bc9 783f 7c3d 813f b9b7 753f 5cde 833f
00000070: e06d 7e3f dd5b 7c3f 26e0 753f 3a1f 823f
00000080: 5145 743f 838c 883f 844a 823f 6b56 893f
00000090: 40b2 7e3f 0046 763f ace1 673f f834 843f
000000a0: 0998 873f 9b94 873f b283 7b3f 327b 843f
000000b0: 7e99 713f 5103 713f c0e6 743f f755 863f
000000c0: c068 723f 79c5 853f 0c9f 7c3f b7a5 763f
000000d0: 7b84 7e3f 5859 883f 651d 713f 630f 6f3f
000000e0: 2bf0 833f 0a8b 753f 3819 703f 4d59 833f
000000f0: 3e47 843f 4b16 843f aee1 5a3f ff4d 7b3f
00000100: d1ce 7f3f a7af 683f 3451 723f 65d5 833f
00000110: eae2 783f 0c54 743f ec23 833f 7e5e 803f
00000120: 3f23 7f3f af73 813f fb96 813f a980 6d3f
00000130: 0e8a 833f 38e4 6f3f 1fd2 8b3f 1259 813f
00000140: 2366 8d3f 6511 813f 7651 6c3f 646d 883f
00000150: 059e 843f 150d 823f c3ee 823f 03e4 7a3f
00000160: 5566 7e3f e713 833f 3c68 833f adfa 703f
00000170: 630c 733f 9c19 6d3f bc5c 7a3f 5ca8 743f
00000180: 00b8 853f fac7 7d3f 1abe 893f 11f6 843f
00000190: cef4 8e3f 943c 893f 3696 773f 913b 8b3f
000001a0: 18bd 813f 5af7 853f ba4c 803f 75fc 853f
000001b0: 3a8a 883f c9cc 6c3f e262 833f 6825 733f
000001c0: 9d8e 5e3f 61d0 6f3f ee7e 6a3f 2b65 883f
000001d0: 4eb7 803f 8d18 673f 87c1 503f c2c9 773f
000001e0: ce11 723f 93cb 833f 8ea9 7b3f 71ec 8a3f
000001f0: a79b 803f 86ba 833f f5c0 813f 5a6c 813f

encoder.1.bias f4 [128]
0.1609218 0.013838663 0.11836382 0.18138339 0.29664505 0.004610132 0.0036641997 0.26828808
-0.094305046 0.16235366 0.034629047 -0.08087859 -0.0754718 -0.10507848 0.096011184 0.13203596
0.23449726 0.2019529 -0.047268912 0.0004971656 0.3166401 0.022617903 -0.11354694 0.1546294
0.208937 0.1600911 0.013969768 0.16826656 0.02415452 0.06439259 -0.013952238 0.050773133
0.177899 -0.0012810976 -0.0056717633 0.15916255 0.3640171 0.28350535 0.44044715 0.12440429
-0.017201345 0.14496534 0.15003017 -0.034950614 -0.014070539 0.1862788 -0.05376929 -0.0016204538
0.16734864 0.038430106 0.0677892 0.17268515 -0.0115173645 -0.2560171 0.041869566 0.17630233
-0.0138944825 0.28830445 -0.18191321 -0.081805065 0.08553678 0.29482847 -0.007176909 -0.02466806
0.13661453 0.049197417 0.12582259 0.15526438 0.03869974 -0.065995745 0.04126436 -0.11383906
0.089920215 -0.12483964 0.13240963 0.19782929 -9.1006674e-05 0.22114904 0.05430133 0.23348282
0.114409804 0.114077516 0.09998134 -0.023723047 0.017535316 0.054666787 0.112704806 0.22547573
0.14067946 -0.07263984 -0.1862264 0.0149563 -0.049606256 0.33595967 0.04270668 0.18903306
0.058651056 0.0845098 0.42581475 0.05880847 -0.09468586 0.08621174 0.03541745 -0.07139753
0.11839794 0.047679782 0.127609 0.15142931 0.0033977772 0.27452478 -0.06872572 0.0318141
0.061885655 -0.07814941 0.09343652 0.06343153 -0.056471616 -0.13060828 0.015798174 0.30601355
0.060226172 0.15800618 0.051775284 -0.1073231 0.15493461 -0.017517673 0.118134245 0.074076414
00000000: afc8 243e 8fbb 623c bb68 f23d 91bc 393e
00000010: dce1 973e 9710 973b 1223 703b 0e5d 893e
00000020: 0123 c1bd 0a40 263e 30d7 0d3d ada3 a5bd
00000030: f690 9abd 6333 d7bd 83a1 c43d 6f34 073e
00000040: 0d20 703e becc 4e3e 0c9d 41bd 3854 023a
00000050: a71e a23e 2e49 b93c 4c8b e8bd 2b57 1e3e
00000060: 95f3 553e ecee 233e 74e1 643c 124e 2c3e
00000070: b3df c53c 43e0 833d ed97 64bc 7df7 4f3d
00000080: 282b 363e 81ea a7ba 33da b9bb 82fb 223e
00000090: 7360 ba3e 9d27 913e 4a82 e13e adc7 fe3d
000000a0: d6e9 8cbc cb71 143e 82a1 193e 6028 0fbd
000000b0: 1e88 66bc dfbf 3e3e 303d 5cbd 6865 d4ba
000000c0: 715d 2b3e e368 1d3d 10d5 8a3d 60d4 303e
000000d0: 54b3 3cbc ac14 83be 6c7f 2b3d 9988 343e
000000e0: afa5 63bc a49c 933e 7547 3abe 6a89 a7bd
000000f0: e82d af3d c2f3 963e 472c ebbb ac14 cabc
00000100: aee4 0b3e 3b83 493d a3d7 003e a0fd 1e3e
00000110: 9e83 1e3d c728 87bd d104 293d 7424 e9bd
00000120: 1728 b83d edab ffbd 6496 073e c393 4a3e
00000130: d6da beb8 e574 623e 126b 5e3d 1f16 6f3e
00000140: b04f ea3d 79a1 e93d 04c3 cc3d d656 c2bc
00000150: 39a6 8f3c 48ea 5f3d c7d1 e63d 1ce3 663e
00000160: 470e 103e 32c4 94bd 22b2 3ebe 450b 753c
00000170: ee2f 4bbd e802 ac3e 33ed 2e3d e291 413e
00000180: 173c 703d 7913 ad3d 6404 da3e 26e1 703d
00000190: a9ea c1bd c88f b03d e311 113d de38 92bd
000001a0: 9f7a f23d e04b 433d efab 023e 4910 1b3e
000001b0: 3ead 5e3b 838e 8c3e 12c0 8cbd 804f 023d
000001c0: d07b 7d3d cc0c a0bd a55b bf3d 64e8 813d
000001d0: c84e 67bd 2dbe 05be 2c6b 813c cfad 9c3e
000001e0: b8af 763d 5fcc 213e 5212 543d 37cc dbbd
000001f0: 2ea7 1e3e 3981 8fbc 5ef0 f13d 60b5 973d

encoder.1.running_mean f4 [128]
0.21738939 0.22432512 0.10782088 0.007682189 0.037622724 0.013923145 0.018956399 -0.17208022
-0.06686195 0.24559385 0.02134234 -0.088871494 0.09077081 -0.14393178 -0.05839533 0.043730214
-0.010140949 0.20078595 0.10389584 -0.105058424 -0.20780528 0.030077541 -0.09920483 0.21473676
0.2516601 -0.19785398 0.17468376 -0.0032345126 -0.03530204 0.10110085 0.0028143455 -0.1743455
-0.19617027 0.169221 -0.033685897 -0.07330588 -0.19748433 0.10089748 -0.25122082 -0.19000857
0.23521523 0.1215304 -0.057471555 -0.0937736 -0.039539065 -0.215623 0.06903873 -0.023582144
-0.018669873 0.11029454 0.1140599 -0.08088964 0.22792885 0.072023824 -0.182051 0.232081
-0.19451402 -0.03553623 0.22529109 -0.17832536 -0.22893853 -0.035656743 -0.25634345 -0.09728493
0.032649767 -0.22453554 -0.21518278 -0.118874766 -0.06270826 0.15372823 -0.084662475 0.003011795
-0.1352186 -0.08129722 0.21205766 0.10623321 0.030783819 -0.040505685 -0.11856641 -0.12517083
0.090564124 0.037607785 -0.16529733 -0.22673763 -0.06696496 -0.19754119 -0.07405251 0.042870622
-0.14148685 0.022652427 -0.05749592 -0.23469624 0.073192015 -0.050407417 -0.20508009 -0.24446018
0.0017240564 0.25394002 0.017587041 -0.0956549 0.12094731 -0.23804438 -0.07160106 -0.13982423
0.1117982 -0.011950684 -0.22034556 0.052704375 -0.040841248 0.06980939 0.018423487 0.016653953
0.2288811 0.1418123 -0.068174824 -0.17097251 0.08976434 -0.04412759 0.08754897 0.12678589
-0.042321462 0.101460524 0.044920996 -0.22605845 0.2007462 0.06935454 -0.060769867 0.23377524
00000000: 539b 5e3e 7cb5 653e 32d1 dc3d dfba fb3b
00000010: 491a 1a3d e71d 643c 734a 9b3c cc35 30be
00000020: ebee 88bd f47c 7b3e 22d6 ae3c 4202 b6bd
00000030: 0ce6 b93d da62 13be f12f 6fbd 741e 333d
00000040: 3926 26bc d59a 4d3e 58c7 d43d df28 d7bd
00000050: e8ca 54be 2d65 f63c e72b cbbd f4e3 5b3e
00000060: 98d9 803e 3c9a 4abe 4de0 323e 1efa 53bb
00000070: df98 10bd f60d cf3d e270 383b a087 32be
00000080: dce0 48be 4548 2d3e 39fa 09bd 6521 96bd
00000090: 5539 4abe 57a3 ce3d 04a0 80be 9b91 42be
000000a0: 43dc 703e eee4 f83d 4b67 6bbd 600c c0bd
000000b0: b7f3 21bd 47cc 5cbe 2d64 8d3d 572f c1bc
000000c0: 90f1 98bc 1be2 e13d 3d98 e93d 78a9 a5bd
000000d0: 2e66 693e 3a81 933d 946b 3abe a4a6 6d3e
000000e0: af2e 47be 708e 11bd b5b2 663e ec9a 36be
000000f0: dd6e 6abe ce0c 12bd 733f 83be 523d c7bd
00000100: c3bb 053d a5ec 65be e058 5cbe 9d74 f3bd
00000110: 306d 80bd ef6a 1d3e 8563 adbd 8961 453b
00000120: bf76 0abe 287f a6bd a525 593e cc90 d93d
00000130: 592e fc3c 4ae9 25bd f2d2 f2bd c82c 00be
00000140: af79 b93d 9f0a 1a3d b443 29be e92d 68be
00000150: ed24 89bd 3d48 4abe d8a8 97bd 1b99 2f3d
00000160: eee1 10be 9591 b93c d880 6bbd 3654 70be
00000170: b2e5 953d 0278 4ebd 8400 52be c553 7abe
00000180: bcf9 e13a 6d04 823e b312 903c b7e6 c3bd
00000190: 39b3 f73d e8c1 73be 94a3 92bd 152e 0fbe
000001a0: 74f6 e43d cdcc 43bc 44a2 61be 8be0 573d
000001b0: 2749 27bd 3af8 8e3d daec 963c df6d 883c
000001c0: cf5f 6a3e 3e37 113e 3e9f 8bbd 6b13 2fbe
000001d0: 5ed6 b73d 22bf 34bd e04c b33d 29d4 013e
000001e0: 4559 2dbd 89ca cf3d 14ff 373d de7b 67be
000001f0: 6990 4d3e c109 8e3d d3e9 78bd c762 6f3e

encoder.1.running_var f4 [128]
0.5025515 0.43190604 0.3101501 0.22099455 0.42844218 0.27555385 0.41928956 0.57317793
0.3344965 0.58012366 0.2821045 0.52413523 0.9700682 0.69963646 0.31792745 0.45697254
0.21569127 0.24880837 0.7052343 0.27029437 0.28901103 0.4026273 0.38381687 0.33762798
0.43353516 0.30592877 0.40654042 0.36500883 0.38091785 0.47547027 0.18850055 0.28942633
0.17738892 0.23676491 0.2905586 0.34818164 0.1844101 0.419566 0.37512687 0.43438175
0.59190917 0.23433676 0.6404833 0.43298224 0.22798486 0.25476176 0.3051194 0.32614535
0.38622826 0.43283015 0.3441391 0.35722053 0.23231238 0.23083386 0.5275759 0.25256455
0.3612043 0.4285735 0.3833943 0.46577364 0.30759317 0.7650219 0.20522417 0.651648
0.6477905 0.16633363 0.26083398 0.27140978 0.16947661 0.33020374 0.48490614 0.5302391
0.36362708 0.3130305 0.30894446 0.34823763 0.48524588 0.37786245 0.73922104 0.27654585
0.48356044 0.34490526 0.38413206 0.5386738 0.43796492 0.3027243 0.7712823 0.25627998
0.1962308 0.6050851 0.8862282 0.2744376 0.503181 0.13227497 0.41103774 0.21209402
0.33471859 0.2536218 0.29736304 0.41915938 0.5077054 0.71199876 0.24343862 0.74778503
0.24068819 0.32936442 0.3597886 0.48377424 0.5380751 0.51577836 0.39819142 0.4095449
0.44546217 0.68958074 0.8346007 0.36930835 0.4671005 0.124446295 0.23339902 0.33425045
0.43291998 0.22444087 0.33939365 0.9155882 0.39913172 0.27559993 0.33104372 0.38932413
00000000: 37a7 003f ca22 dd3e fecb 9e3e 654c 623e
00000010: c65c db3e 6515 8d3e 1fad d63e cabb 123f
00000020: 2043 ab3e fc82 143f 0070 903e ba2d 063f
00000030: 6456 783f 601b 333f 63c7 a23e 4ef8 e93e
00000040: 2cde 5c3e 9fc7 7e3e 3c8a 343f 0664 8a3e
00000050: 41f9 933e 2a25 ce3e a583 c43e 93dd ac3e
00000060: 52f8 dd3e b2a2 9c3e 1126 d03e 70e2 ba3e
00000070: aa07 c33e d770 f33e 4a06 413e b02f 943e
00000080: 71a5 353e 8072 723e 19c4 943e dd44 b23e
00000090: 00d6 3c3e 5bd1 d63e a110 c03e 4967 de3e
000000a0: 5c87 173f faf5 6f3e b7f6 233f d9af dd3e
000000b0: dd74 693e 2270 823e 9c38 9c3e 86fc a63e
000000c0: b6bf c53e ea9b dd3e 0033 b03e 9ce5 b63e
000000d0: 4ce3 6d3e b65f 6c3e 370f 073f 2450 813e
000000e0: c5ef b83e fc6d db3e 424c c43e e279 ee3e
000000f0: da7c 9d3e 7ad8 433f 4926 523e 67d2 263f
00000100: 99d5 253f 5d53 2a3e 088c 853e 39f6 8a3e
00000110: 478b 2d3e 7710 a93e 9e45 f83e c0bd 073f
00000120: 542d ba3e 8945 a03e f82d 9e3e 344c b23e
00000130: 2672 f83e 3077 c13e 973d 3d3f 6b97 8d3e
00000140: 3c95 f73e 6c97 b03e f5ac c43e 87e6 093f
00000150: f03c e03e aefe 9a3e c272 453f 2137 833e
00000160: baf0 483e dbe6 1a3f dadf 623f 1683 8c3e
00000170: 78d0 003f 1773 073e 8a73 d23e 2d2f 593e
00000180: 3c60 ab3e b7da 813e f83f 983e 0f9c d63e
00000190: fbf8 013f 8d45 363f f947 793e d76e 3f3f
000001a0: f776 763e 74a2 a83e 3636 b83e 42b1 f73e
000001b0: 4abf 093f 0d0a 043f bfdf cb3e deaf d13e
000001c0: 9e13 e43e 5d88 303f 64a8 553f fc15 bd3e
000001d0: cc27 ef3e b3dd fe3d 2700 6f3e e022 ab3e
000001e0: b0a7 dd3e d4d3 653e 01c5 ad3e fd63 6a3f
000001f0: fe5a cc3e 6f1b 8d3e 907e a93e 7e55 c73e

encoder.3.weight f4 [64, 128]
-0.02491698 -0.03294551 0.04874289 0.04214893 0.07886015 0.039913636 -0.09098666 0.08537018
0.008149535 -0.03834469 -0.073168345 -0.004542241 0.0068550943 -0.030567756 0.03086909 0.16045354
0.12960017 0.08374959 0.08760095 -0.061162647 -0.049410924 -0.11915393 -0.06408573 -0.096981995
-0.115989484 -0.023637997 0.1381925 -0.038849186 0.12720373 -0.13051046 -0.1043918 -0.13497706
0.07638152 0.07410206 -0.09564405 0.107646264 -0.014327821 -0.09114167 0.026569057 -0.023811761
-0.21204515 -0.05912793 0.15083548 0.025002297 -0.035822876 0.071396746 0.04905252 -0.10545962
-0.09879701 -0.01432461 -0.0043461714 0.07946414 0.050348874 0.025880618 -0.1349026 0.053441077
-0.0034200982 0.10992058 -0.0050038137 0.22172464 0.025577098 -0.06827715 0.011776294 0.0026971595
0.07020778 0.0049576894 0.0148061365 0.03880464 -0.019775236 -0.09872571 0.024412049 0.012181065
-0.071623795 0.056106452 -0.0097657805 -0.008950446 0.004361815 0.053971626 0.11782109 -0.046819616
0.033644892 0.08434553 0.14413173 -0.01432713 0.12572002 0.09993094 0.20511955 -0.09680402
-0.1462219 -0.102638215 -0.055783972 -0.022797126 0.052704103 0.03038103 0.07610369 0.07549494
-0.0684382 -0.07703375 -0.15583853 -0.06751879 0.041316275 0.040633705 -0.061782233 -0.21300352
-0.045128044 -0.055616885 -0.04617729 0.12987107 0.029984323 0.018827513 -0.0007605665 -0.16448364
0.04972319 -0.09127586 -0.012457854 0.26956135 -0.024073027 -0.004871029 -0.042014606 0.08825944
-0.12688087 0.033271234 0.21902366 -0.1426451 0.027368225 0.08602989 -0.042774454 0.018276215
0.04218473 0.26318568 -0.08962937 0.11178575 0.05875982 -0.0028435392 -0.018398523 0.07153558
0.018420601 0.0030237362 -0.097408496 -0.088679336 -0.15275204 0.15635438 0.13504978 0.16731614
0.044800796 -0.028571624 -0.11684652 0.010903172 0.035869796 -0.013552007 0.037205886 -0.11628317
-0.054879054 -0.051240902 0.058785167 -0.02014956 0.047724072 0.03234737 -0.011512959 0.1029783
0.040298887 0.04068198 0.108713716 -0.02276406 0.09644308 -0.038258765 -0.053420994 -0.041423563
-0.122191265 -0.05471132 0.076626346 0.1467105 -0.029792741 0.028126126 0.020596566 -0.085634634
-0.08817696 -0.09967872 -0.093958244 -0.021303765 -0.032530665 -0.12801409 -0.12310227 -0.06980781
0.05729133 0.114654645 -0.005062126 0.001259443 0.0171203 -0.03990874 0.10069342 -0.12791976
-0.068856515 0.028653078 0.11750039 0.07608995 0.13184643 -0.046025462 0.08535663 0.08588946
0.09484683 -0.21055667 -0.12314393 -0.031978 -0.09249089 0.08017659 0.10368558 0.030841472
-0.11697534 -0.18824004 0.11628913 -0.14924796 0.041320823 -0.04333183 -0.12887217 0.03945624
0.029489063 -0.06898103 -0.026738476 -0.03132046 -0.022119245 0.06268147 0.11173004 -0.09099649
0.040761724 -0.034021113 -0.01253908 0.030588258 0.049370352 -0.19663315 -0.1247205 -0.061398145
-0.06640108 -0.010205443 0.10568121 -0.071067855 -0.030786354 -0.019597128 -0.019281266 -0.022925008
-0.13740183 -0.0012681907 0.12843211 -0.042623673 0.09515315 -0.05339215 -0.10082416 0.073701955
-0.113811895 0.10525341 0.046532385 -0.10916623 -0.09325171 0.038779385 -0.093112186 -0.011544021
00000000: b21e ccbc dff1 06bd a0a6 473d 5ba4 2c3d
00000010: 6e81 a13d 7b7c 233d 3757 babd 90d6 ae3d
00000020: a185 053c 520f 1dbd 49d9 95bd 14d7 94bb
00000030: b3a0 e03b 3b69 fabc 2de1 fc3c ef4d 243e
00000040: e8b5 043e e884 ab3d 2068 b33d af85 7abd
00000050: 1c63 4abd fa06 f4bd 613f 83bd 7f9e c6bd
00000060: e58b edbd 79a4 c1bc 5682 0d3e 5320 1fbd
00000070: b241 023e 89a4 05be 5ecb d5bd 6d37 0abe
00000080: ea6d 9c3d d2c2 973d 07e1 c3bd a575 dc3d
00000090: 3dbf 6abc 7ca8 babd 5aa7 d93c e210 c3bc
000000a0: 5d22 59be 2130 72bd 9e74 1a3e 9ed1 cc3c
000000b0: 02bb 12bd 7538 923d 4ceb 483d 37fb d7bd
000000c0: 1656 cabd c5b1 6abc 546a 8ebb 18be a23d
000000d0: 9f3a 4e3d 9703 d43c e823 0abe 08e5 5a3d
000000e0: ba23 60bb 0b1e e13d 08f7 a3bb c90b 633e
000000f0: 1087 d13c e4d4 8bbd 5bf1 403c d4c2 303b
00000100: 19c9 8f3d 1d74 a23b 7095 723c 9df1 1e3d
00000110: adff a1bc b430 cabd c7fb c73c 1793 473c
00000120: 7faf 92bd e1cf 653d a700 20bc e4a4 12bc
00000130: 8eed 8e3b 5a11 5d3d 2f4c f13d edc5 3fbd
00000140: 3acf 093d 59bd ac3d 4597 133e 57bc 6abc
00000150: c0bc 003e 98a8 cc3d dc0a 523e 3041 c6bd
00000160: 32bb 15be fc33 d2bd bc7d 64bd 0ac1 babc
00000170: 42e0 573d a3e1 f83c 40dc 9b3d 179d 9a3d
00000180: 5429 8cbd dfc3 9dbd 2394 1fbe 4b47 8abd
00000190: 413b 293d 876f 263d 5e0f 7dbd 981d 5abe
000001a0: 2fd8 38bd 88ce 63bd 6624 3dbd ecfc 043e
000001b0: afa1 f53c 283c 9a3c c160 47ba 666e 28be
000001c0: 8baa 4b3d d7ee babd 071c 4cbc f203 8a3e
000001d0: cc34 c5bc 279d 9fbb 8217 2cbd 5ec1 b43d
000001e0: 0fed 01be 6b47 083d bd47 603e 8f11 12be
000001f0: 5433 e03c 7030 b03d 4434 2fbd 00b8 953c
00000200: e5c9 2c3d 46c0 863e 9a8f b7bd edef e43d
00000210: 23ae 703d ac5a 3abb 80b8 96bc 3f81 923d
00000220: cde6 963c e029 463b 1b7e c7bd 839d b5bd
00000230: 086b 1cbe 5d1b 203e 7d4a 0a3e ec54 2b3e
00000240: 0a81 373d 0a0f eabc 3a4d efbd 38a3 323c
00000250: 35ec 123d 3d09 5ebc 3365 183d df25 eebd
00000260: dcc8 60bd fbe1 51bd b7c8 703d b110 a5bc
00000270: 517a 433d ad7e 043d daa0 3cbc 49e6 d23d
00000280: 7210 253d 26a2 263d 4ca5 de3d b27b babc
00000290: f383 c53d 39b5 1cbd f9cf 5abd c1ab 29bd
000002a0: 6a3f fabd fa18 60bd 46ee 9c3d 473b 163e
000002b0: e80f f4bc c368 e63c 21ba a83c 3661 afbd
000002c0: 1f96 b4bd 5b24 ccbd 2e6d c0bd 3c85 aebc
000002d0: e03e 05bd 2016 03be 0b1d fcbd 66f7 8ebd
000002e0: 50aa 6a3d 0ed0 ea3d 31e0 a5bb e513 a53a
000002f0: df3f 8c3c 5977 23bd 5a38 ce3d 66fd 02be
00000300: a504 8dbd dcb9 ea3c 0ba4 f03d 0cd5 9b3d
00000310: c002 073e 3285 3cbd 75cf ae3d d0e6 af3d
00000320: 0e3f c23d 2b9c 57be e332 fcbd 5dfb 02bd
00000330: dd6b bdbd a033 a43d 1b59 d43d 41a7 fc3c
00000340: c490 efbd ffc1 40be ff28 ee3d 75d4 18be
00000350: 0640 293d b87c 31bd 11f7 03be de9c 213d
00000360: 0c93 f13c ed45 8dbd a60a dbbc e249 00bd
00000370: 6b33 b5bc 245f 803d b8d2 e43d 5e5c babd
00000380: c4f5 263d b959 0bbd b770 4dbc 3a94 fa3c
00000390: 9138 4a3d 335a 49be 766d ffbd 9f7c 7bbd
000003a0: 4afd 87bd bb34 27bc 646f d83d 068c 91bd
000003b0: aa33 fcbc 288a a0bc bff3 9dbc 3acd bbbc
000003c0: 11b3 0cbe 6b39 a6ba b583 033e 2996 2ebd
000003d0: a8df c23d bab1 5abd e67c cebd 0df1 963d
000003e0: 3616 e9bd 1a8f d73d be98 3e3d 8b92 dfbd
000003f0: c1fa bebd 22d7 1e3d 9ab1 bebd 2223 3dbc

encoder.3.bias f4 [64]
-0.038113423 0.005830293 0.0075332774 0.07382851 -0.071072534 0.07960117 -0.017443981 0.009172207
-0.042198554 -0.08730189 -0.06688539 -0.057371087 0.06583018 0.069052674 -0.020764116 0.023466237
0.0389226 -0.0851111 0.08246679 -0.069750614 -0.0803578 -0.0232146 0.056455154 0.0750315
0.03368403 -0.032760415 -0.07055496 -0.027092272 0.051407535 0.011065827 0.072201476 -0.02609736
0.0024664947 -0.080514304 0.0735998 -0.016436903 0.06564935 -0.032602668 -0.029693428 -0.046916835
0.016148437 0.043666255 -0.0109076565 0.06396406 -0.060049195 0.084872656 -0.068852805 -0.007555327
-0.032639667 0.081604935 -0.07420517 -0.037232082 -0.07229231 -0.061286684 -0.04972613 -0.07299508
0.030560482 -0.07124919 0.06390389 0.06613965 0.059914835 -0.04674031 0.026641548 0.06855472
00000000: d21c 1cbd 0b0c bf3b b6d9 f63b 6733 973d
00000010: 7a8e 91bd f005 a33d aee6 8ebc 0647 163c
00000020: 64d8 2cbd 55cb b2bd 35fb 88bd f2fd 6abd
00000030: f9d1 863d 7d6b 8d3d 8219 aabc 443c c03c
00000040: 4e6d 1f3d ba4e aebd 59e4 a83d 69d9 8ebd
00000050: a192 a4bd 8b2c bebc 853d 673d 1daa 993d
00000060: 44f8 093d c92f 06bd 1e7f 90bd 9df0 ddbc
00000070: b590 523d 714d 353c 5ede 933d 21ca d5bc
00000080: eaa4 213b afe4 a4bd 7ebb 963d afa6 86bc
00000090: 2b73 863d 608a 05bd a23f f3bc de2b 40bd
000000a0: ba49 843c 63db 323d 07b6 32bc 97ff 823d
000000b0: 25f6 75bd b7d1 ad3d b302 8dbd ad92 f7bb
000000c0: 2cb1 05bd 7d20 a73d e1f8 97bd ab80 18bd
000000d0: fe0d 94bd bf07 7bbd a0ad 4bbd 727e 95bd
000000e0: fa59 fa3c 18eb 91bd 0be0 823d 3a74 873d
000000f0: 4269 753d c472 3fbd 603f da3c 6b66 8c3d

encoder.4.weight f4 [64]
1.0104114 0.99129546 0.9629422 0.93366855 1.0166968 0.90463877 0.9910803 1.0258995
1.0304546 0.93354785 0.9620688 1.0061307 0.9468631 0.8517955 0.8874183 0.90524435
0.9800958 1.0574447 1.0385058 1.0327542 1.048237 1.1007825 0.99366444 0.94667846
0.93656355 0.9216852 0.9933492 0.98325646 1.0157694 0.9146501 0.99641484 1.0304319
1.0067098 1.02081 0.9596459 0.9275291 0.9832117 1.0090939 0.96850157 0.9034308
1.002756 0.9879204 0.96285415 0.9235719 1.00617 0.95059264 1.0091307 0.95030236
0.9736798 0.97080714 0.9539443 0.99758667 0.94430244 0.8526823 0.9791845 0.95954347
1.0064906 0.9952418 1.0020193 0.9070583 0.9419585 0.99468446 0.9808514 0.9516568
00000000: 2955 813f 8ac5 7d3f 6183 763f e704 6f3f
00000010: 1f23 823f 6896 673f 70b7 7d3f ad50 833f
00000020: f0e5 833f fefc 6e3f 244a 763f e4c8 803f
00000030: 9f65 723f 450f 5a3f d92d 633f 18be 673f
00000040: 8fe7 7a3f 595a 873f c2ed 843f 4a31 843f
00000050: a12c 863f 71e6 8c3f cb60 7e3f 8559 723f
00000060: a1c2 6f3f 90f3 6b3f 224c 7e3f b2b6 7b3f
00000070: bb04 823f 8226 6a3f 0b15 7f3f 31e5 833f
00000080: dedb 803f e7a9 823f 5bab 753f 8c72 6d3f
00000090: c3b3 7b3f fd29 813f b8ef 773f 3e47 673f
000000a0: 4f5a 803f 5ae8 7c3f 9c7d 763f 356f 6c3f
000000b0: 2eca 803f 0a5a 733f 322b 813f 0447 733f
000000c0: 1443 793f d186 783f b235 743f d761 7f3f
000000d0: cebd 713f 6349 5a3f d6ab 7a3f a4a4 753f
000000e0: afd4 803f 2bc8 7e3f 2b42 803f f934 683f
000000f0: 3124 713f a4a3 7e3f 1419 7b3f c89f 733f

encoder.4.bias f4 [64]
0.23046015 0.24726395 0.38297242 0.31427902 0.24612044 0.517804 -0.07544306 0.050656214
0.04369389 0.321324 0.5007094 0.22659329 0.20556445 0.34081176 0.16488186 0.17391141
0.3621815 0.20556958 0.14399886 0.20622614 0.08784363 0.03068345 0.15258123 0.29595864
0.33505565 0.3805228 0.46082526 0.33467194 0.17836213 0.20375127 0.17235711 -0.010483077
0.31970277 -0.0010420779 0.27683917 0.28012592 0.14102827 0.14805514 0.4323352 0.18616605
0.35429388 0.30783775 0.12005432 0.34327874 0.35698754 0.27206287 0.301251 0.38874948
0.29137135 0.05097496 0.1501507 0.52737844 0.26637498 0.4484385 0.1145796 0.21047367
0.35635054 0.22839464 0.3187453 0.12700345 0.10780139 0.023343734 0.44310075 0.09706766
00000000: bffd 6b3e c332 7d3e f614 c43e 2ee9 a03e
00000010: ff06 7c3e ce8e 043f e481 9abd e47c 4f3d
00000020: 5df8 323d 9484 a43e 7e2e 003f 1208 683e
00000030: 7d7f 523e e17e ae3e cad6 283e d515 323e
00000040: db6f b93e d580 523e 7074 133e f22c 533e
00000050: 5ce7 b33d dc5b fb3c 413e 1c3e e487 973e
00000060: 6a8c ab3e e2d3 c23e 4af1 eb3e 1f5a ab3e
00000070: 90a4 363e 2ca4 503e 627e 303e 36c1 2bbc
00000080: 15b0 a33e 5596 88ba ddbd 8d3e aa6c 8f3e
00000090: b769 103e c49b 173e 0a5b dd3e 50a2 3e3e
000000a0: 0266 b53e e99c 9d3e 0adf f53d 3bc2 af3e
000000b0: 12c7 b63e d34b 8b3e 923d 9a3e 2c0a c73e
000000c0: a02e 953e 1fcb 503d 1bc1 193e 4602 073f
000000d0: 4d62 883e bb99 e53e b6a8 ea3d 6986 573e
000000e0: 9473 b63e 49e0 693e 9532 a33e 310d 023e
000000f0: fac6 dc3d 5c3b bf3c 1ade e23e 69cb c63d

encoder.4.running_mean f4 [64]
0.15362403 -0.26001823 0.6590381 0.7063877 0.7222776 0.6047789 0.4411267 0.6874506
-0.039193306 0.42326835 -0.2817089 0.5138359 1.0683297 -0.30038428 0.95556176 0.19847652
0.5632483 -0.27368292 0.5380197 0.78483397 0.5383099 0.25316024 0.2667157 0.6252936
0.28865886 -0.8205628 0.19333997 0.7214258 0.5876941 0.23133355 -0.115090445 -0.0013004425
1.0931374 0.3740814 -0.059393298 0.21547835 0.37384692 0.11601123 -0.057103008 -0.72982925
0.019208938 0.8246593 -0.123257354 -0.2618701 0.15568495 0.4457396 -0.1951993 0.017378382
-0.34150752 1.1497687 0.43099958 0.25038266 -0.0007529161 -0.33136034 0.31807327 -0.2975071
-0.26344642 -0.34112224 -0.74496657 0.28028014 -0.37423015 0.04649778 -0.1998607 0.68840235
00000000: 9e4f 1d3e 1c21 85be b9b6 283f d3d5 343f
00000010: 2fe7 383f cad2 1a3f 5cdb e13e c3fc 2f3f
00000020: 2989 20bd a1b6 d83e 263c 90be c08a 033f
00000030: 07bf 883f f8cb 99be b29f 743f 6e3d 4b3e
00000040: 0a31 103f 2b20 8cbe a9bb 093f e1ea 483f
00000050: adce 093f 389e 813e f68e 883e 3e13 203f
00000060: 18cb 933e 6710 52bf eafa 453e 5caf 383f
00000070: 1f73 163f b4e2 6c3e 8ab4 ebbd 9c73 aaba
00000080: edeb 8b3f 9987 bf3e 6346 73bd 5ba6 5c3e
00000090: dd68 bf3e 4c97 ed3d d8e4 69bd 17d6 3abf
000000a0: 105c 9d3c df1c 533f 5a6e fcbd d613 86be
000000b0: e06b 1f3e fb37 e43e 53e2 47be 1c5d 8e3c
000000c0: 13da aebe 9f2b 933f faab dc3e 2832 803e
000000d0: 585f 45ba 10a8 a9be 80da a23e da52 98be
000000e0: 73e2 86be 93a7 aebe 21b6 3ebf e180 8f3e
000000f0: 189b bfbe 7574 3e3d 49a8 4cbe 233b 303f

encoder.4.running_var f4 [64]
1.0437825 1.0863622 1.1487956 1.0306059 1.2356322 0.7937943 0.8004088 1.2008208
1.08594 0.8079263 1.3246135 0.8207793 0.93118364 0.5921863 0.6245557 0.9367964
1.2451382 1.7924305 1.3939459 1.1428897 1.05468 1.2891018 0.8017862 0.91826594
1.0053377 1.240813 1.8301673 1.2696149 1.1440057 0.8099057 1.1077734 0.76078784
0.8558162 0.94840324 0.5158438 0.7991539 0.9047062 1.1552379 1.0066782 0.67289454
1.3482803 1.1461977 1.611303 1.3815789 1.0944201 0.84941447 0.86760086 1.2161067
1.0531543 0.98484474 0.67752755 1.4440901 1.0056571 0.64315856 1.0847822 0.8835245
0.91673094 1.6719457 1.2175062 0.6707238 0.7892905 1.0952669 1.2366561 0.8467483
00000000: aa9a 853f eb0d 8b3f bc0b 933f e5ea 833f
00000010: 3229 9e3f 1a36 4b3f 97e7 4c3f 7fb4 993f
00000020: 1500 8b3f 42d4 4e3f ef8c a93f 981e 523f
00000030: 0d62 6e3f 8599 173f e2e2 1f3f e4d1 6f3f
00000040: b060 9f3f 5d6e e53f d26c b23f 364a 923f
00000050: c1ff 863f 4a01 a53f dc41 4d3f 7a13 6b3f
00000060: e8ae 803f f6d2 9e3f ec42 ea3f be82 a23f
00000070: c76e 923f fb55 4f3f 85cb 8d3f fec2 423f
00000080: c516 5b3f 8eca 723f 570e 043f 5a95 4c3f
00000090: d39a 673f d6de 933f d5da 803f d142 2c3f
000000a0: 7394 ac3f 9bb6 923f 2d3f ce3f 94d7 b03f
000000b0: f515 8c3f 3a73 593f 171b 5e3f 62a9 9b3f
000000c0: c3cd 863f c91e 7c3f 7272 2d3f f2d7 b83f
000000d0: 5fb9 803f 0aa6 243f 25da 8a3f a92e 623f
000000e0: e1ae 6a3f 5102 d63f 3ed7 9b3f 8eb4 2b3f
000000f0: f10e 4a3f b531 8c3f bf4a 9e3f 7fc4 583f

encoder.6.weight f4 [64, 64]
0.17922932 0.22147751 -0.15136535 -0.009124374 -0.06998152 0.0011192472 0.029574862 0.07947433
0.15383764 -0.13392773 -0.006728851 -0.07727435 -0.017830476 0.032111526 0.04373143 -0.11292837
0.037183676 0.00024807485 0.0445797 0.14065535 -0.111250415 -0.13092147 -0.07976604 0.13020423
-0.09457564 0.16033019 -0.06399125 -0.09394003 -0.004730136 -0.011268822 0.029184153 0.03146295
0.041263007 0.03017019 0.098756894 0.037834886 -0.07348426 -0.102637924 0.090400755 0.014680135
-0.042014148 -0.012469044 0.1961755 0.013123508 -0.09092642 -0.061772406 -0.019303327 -0.047057964
0.25280613 -0.0588432 -0.23227225 -0.08753955 -0.080317736 -0.024882093 -0.01406511 -0.10260653
0.043646604 0.18536201 -0.10486892 -0.07943175 -0.14102979 -0.018934213 -0.11039528 0.039347954
-0.046232652 0.14092308 -0.01551145 0.08527073 -0.10853835 0.18356314 -0.04879914 -0.067390986
-0.087692395 -0.17178851 0.115054555 0.02651597 -0.04953235 -0.07821142 -0.0016391326 0.08771185
-0.1019622 0.14581998 0.03832839 0.101492524 0.16783902 -0.10318897 -0.05896069 0.033625335
0.15762395 -0.08554166 -0.14784035 -0.1562424 -0.10928067 0.15392837 0.081661895 -0.10823315
-0.07372951 -0.11485477 0.058175355 -0.16966663 -0.13336034 -0.089385584 -0.049449928 -0.0928549
-0.097454235 -0.102796644 -0.09651144 -0.14948614 0.14397897 -0.04548201 -0.06109323 0.062310785
0.068908185 -0.07968207 0.020657858 0.058761913 -0.04262459 0.1345801 0.025260223 -0.063421585
-0.09539427 0.008499422 -0.12778118 0.08527849 0.0699708 0.2408025 0.17610778 0.05178425
0.043988973 0.008753599 0.07626083 0.019384813 0.05597835 0.035343617 -0.057860985 0.2757896
0.0699681 -0.07374857 0.17054906 -0.043190323 -0.1582068 -0.19995041 0.035035588 0.103274286
0.22065096 -0.2210192 0.07180511 -0.041864052 0.013859513 -0.0916199 0.13028052 0.08903295
0.058777 0.009598321 0.11813381 0.08917649 -0.030120045 0.11121624 0.18248719 -0.10178229
-0.03040008 -0.12948576 -0.026434472 0.093173124 0.08202743 -0.038119286 -0.05674614 -0.094340965
-0.019827457 0.10651976 0.09179904 -0.10758615 0.20978332 -0.06909338 0.07511279 0.035258878
0.031050816 0.0017244851 0.22751752 0.1499911 0.11896664 0.07484414 -0.033864144 0.03904133
-0.09459627 -0.14796314 -0.08416974 0.049310673 0.0555391 -0.11064577 0.04476976 -0.10912725
0.10744459 0.1409436 0.02273168 -0.0552822 0.17174502 -0.0042874464 -0.086923204 -0.07619624
0.032857228 0.023990668 -0.16315791 -0.016029323 0.1554925 -0.1280701 -0.049708944 0.11475741
-0.12694341 0.19201854 0.050756283 0.0877715 0.23519711 0.088038005 -0.0037908906 0.08998802
-0.19148445 0.022297226 0.0066379346 0.008013795 -0.09304314 -0.03069994 0.07931223 0.038566843
9.981626e-05 -0.01654282 -0.045161843 -0.122130565 0.13004436 0.06469076 -0.11015965 -0.063256405
0.042945858 0.10371319 -0.17675978 -0.026538828 -0.07211446 0.056215808 -0.045024734 -0.102409944
0.14254156 0.030187285 0.21318474 -0.036077112 0.022427808 -0.22060163 0.17649063 -0.10070107
-0.04178656 0.078868516 0.06566256 0.09120857 0.046647813 0.13053949 -0.108537 -0.018625835
00000000: e487 373e 00cb 623e 85ff 1abe 667e 15bc
00000010: 7952 8fbd b4b3 923a fb46 f23c 70c3 a23d
00000020: 9d87 1d3e 5a24 09be b17d dcbb 0442 9ebd
00000030: 3811 92bc 6087 033d ba1f 333d fd46 e7bd
00000040: e94d 183d 0b10 8239 3499 363d f507 103e
00000050: 42d7 e3bd 4710 06be 615c a3bd 4254 053e
00000060: e0b0 c1bd 992d 243e d80d 83bd a163 c0bd
00000070: 42ff 9abb dda0 38bc 9b13 ef3c 4bdf 003d
00000080: 6603 293d 7927 f73c 0e41 ca3d c1f8 1a3d
00000090: ea7e 96bd d533 d2bd 0824 b93d f384 703c
000000a0: 0717 2cbd f64a 4cbc 3be2 483e fb03 573c
000000b0: a237 babd 1005 7dbd 0322 9ebc dabf 40bd
000000c0: ce6f 813e 9105 71bd c7d8 6dbe f047 b3bd
000000d0: a07d a4bd 88d5 cbbc 5971 66bc 5f23 d2bd
000000e0: c8c6 323d 8acf 3d3e 84c5 d6bd 1dad a2bd
000000f0: 1d6a 10be ec1b 9bbc ec16 e2bd 522b 213d
00000100: 735e 3dbd 244e 103e bd23 7ebc 6ca2 ae3d
00000110: 5b49 debd faf7 3b3e 9be1 47bd 4904 8abd
00000120: 1298 b3bd 54e9 2fbe b9a1 eb3d 0538 d93c
00000130: 6fe2 4abd 4f2d a0bd 2ad8 d6ba 45a2 b33d
00000140: 8fd1 d0bd d551 153e 3bfe 1c3d 50db cf3d
00000150: fedd 2b3e bd54 d3bd c480 71bd b8ba 093d
00000160: 2c68 213e 7730 afbd 7663 17be 02fe 1fbe
00000170: 8bce dfbd 669f 1d3e 5a3e a73d 57a9 ddbd
00000180: 7fff 96bd fa38 ebbd 4849 6e3d 17bd 2dbe
00000190: 9d8f 08be ca0f b7bd 028c 4abd b62a bebd
000001a0: 1696 c7bd 0c87 d2bd caa7 c5bd e512 19be
000001b0: 396f 133e 584b 3abd e53c 7abd 9839 7f3d
000001c0: bc1f 8d3d 5a30 a3bd ab3a a93c 55b0 703d
000001d0: 1f97 2ebd 5ecf 093e 87ee ce3c 2de3 81bd
000001e0: 125e c3bd 2941 0b3c 12d9 02be 7da6 ae3d
000001f0: da4c 8f3d ee94 763e 9955 343e b91b 543d
00000200: c82d 343d 416b 0f3c a32e 9c3d e6cc 9e3c
00000210: 8e49 653d 78c4 103d a4ff 6cbd 4b34 8d3e
00000220: 6f4b 8f3d 7e09 97bd 6aa4 2e3e 56e8 30bd
00000230: f700 22be cdbf 4cbe 7a81 0f3d 7881 d33d
00000240: 53f2 613e db52 62be 8f0e 933d a479 2bbd
00000250: 0313 633c 37a3 bbbd 4268 053e e856 b63d
00000260: 27c0 703d 4742 1d3c 24f0 f13d 2aa2 b63d
00000270: 50be f6bc 57c5 e33d ecdd 3a3e 3c73 d0bd
00000280: 9709 f9bc ea97 04be 1b8d d8bc 8dd1 be3d
00000290: fffd a73d f822 1cbd a46e 68bd d635 c1bd
000002a0: 316d a2bc 0827 da3d 2301 bc3d 2156 dcbd
000002b0: 70d1 563e d480 8dbd bcd4 993d 9d6b 103d
000002c0: 485e fe3c 1e08 e23a 5afa 683e 4497 193e
000002d0: c8a4 f33d e247 993d 21b5 0abd cde9 1f3d
000002e0: b0bb c1bd a683 17be 2f61 acbd fdf9 493d
000002f0: f87c 633d 409a e2bd 7f60 373d 1c7e dfbd
00000300: e90b dc3d 8553 103e ca37 ba3c 976f 62bd
00000310: eddd 2f3e b57d 8cbb cb04 b2bd c60c 9cbd
00000320: 4d95 063d 1488 c43c de12 27be ed4f 83bc
00000330: 6d39 1f3e cf24 03be 9b9b 4bbd ef05 eb3d
00000340: 74fd 01be 82a0 443e d2e5 4f3d 8bc1 b33d
00000350: 83d7 703e 454d b43d 9770 78bb a44b b83d
00000360: 8014 44be aca8 b63c 0883 d93b 4b4c 033c
00000370: 678d bebd 717e fbbc 736e a23d 44f8 1d3d
00000380: 7254 d138 cf84 87bc a0fb 38bd 971f fabd
00000390: 592a 053e 977c 843d 629b e1bd 938c 81bd
000003a0: ffe7 2f3d 9567 d43d 8400 35be f567 d9bc
000003b0: bfb0 93bd 8c42 663d db6b 38bd 4ebc d1bd
000003c0: 6af6 113e 534b f73c 1a4d 5a3e 98c5 13bd
000003d0: 86ba b73c 65e5 61be f6b9 343e 5d3c cebd
000003e0: 6228 2bbd d185 a13d 187a 863d 8fcb ba3d
000003f0: c711 3f3d 25ac 053e a648 debd 3595 98bc

encoder.6.bias f4 [64]
-0.119727805 0.020768803 -0.09036052 0.048547365 0.0013277987 0.013457064 -0.03153618 0.07152896
-0.06153595 -0.08778032 0.031740077 0.07079514 -0.10303579 -0.112156495 -0.021143602 0.009452103
0.07395214 -0.11074766 0.04118874 0.06198091 0.016286694 -0.04886243 0.07160767 -0.10343646
0.12072626 0.04423208 -0.045371875 -0.053868927 0.012346113 0.08285003 0.06831175 0.06126318
0.06534327 0.00717052 0.112808675 -0.03847893 0.0045491164 0.12144194 0.10691581 -0.044990573
0.08889528 0.036054198 -0.07541876 -0.06604417 0.035419278 -0.04800924 -0.033807885 0.051857047
0.1166456 -0.017802177 -0.08183776 -0.08843685 0.099916026 0.0786831 0.10834365 0.012965621
0.010307686 -0.071657166 0.04320753 0.053486064 -0.06898115 -0.0019090858 0.048614353 0.09199387
00000000: da33 f5bd 5623 aa3c f00e b9bd 9ad9 463d
00000010: 8809 ae3a 047b 5c3c 152c 01bd c67d 923d
00000020: 1f0d 7cbd 2bc6 b3bd e201 023d 0bfd 903d
00000030: 6e04 d3bd 4eb2 e5bd 5935 adbc fedc 1a3c
00000040: 3874 973d abcf e2bd 86b5 283d b2df 7d3d
00000050: ac6b 853c f923 48bd 0ba7 923d 7fd6 d3bd
00000060: 543f f73d b32c 353d dcd7 39bd aaa5 5cbd
00000070: 5a47 4a3c 47ad a93d 08e7 8b3d 1aef 7a3d
00000080: b1d2 853d aef6 ea3b 3c08 e73d 159c 1dbd
00000090: c110 953b 8db6 f83d adf6 da3d 0948 38bd
000000a0: bb0e b63d 91ad 133d 2775 9abd 2a42 87bd
000000b0: ce13 113d 56a5 44bd 237a 0abd 0e68 543d
000000c0: e3e3 ee3d dfd5 91bc 8e9a a7bd 611e b5bd
000000d0: c6a0 cc3d 9b24 a13d 47e3 dd3d c26d 543c
000000e0: 92e1 283c fec0 92bd 61fa 303d 3414 5b3d
000000f0: fd45 8dbd 4a3a faba d81f 473d 4867 bc3d

encoder.7.weight f4 [64]
0.8734122 1.0321918 0.9981095 1.0435758 0.9011603 0.9944139 1.0029004 1.0560496
0.9663773 1.0113896 0.9471558 0.86974025 1.0334554 1.0259435 0.96563923 0.9999305
1.0257726 0.99104255 0.9249083 0.9476956 0.92873335 1.0187553 0.94828665 1.0470756
0.93939674 0.9735464 0.9937327 0.99834585 0.89730257 0.9681868 0.97317666 0.8819312
0.96929 0.9097689 1.0496359 0.9210716 0.926999 0.9927586 0.9334021 1.0365882
0.98750895 0.9242529 1.0382559 0.92074746 0.8979276 0.902672 0.9600384 1.0295182
0.86668193 0.9606541 0.93674076 0.9635616 1.0005859 1.0503545 1.0656341 0.9850596
0.98893654 0.9927762 0.885673 0.9289329 0.92777675 0.9197654 1.0035666 0.9533799
00000000: f197 5f3f dc1e 843f 1b84 7f3f e493 853f
00000010: 71b2 663f e991 7e3f 0a5f 803f a22c 873f
00000020: 8164 773f 3775 813f cd78 723f 4ca7 5e3f
00000030: 4448 843f 1e52 833f 2234 773f 72fb 7f3f
00000040: 844c 833f f7b4 7d3f cac6 6c3f 2e9c 723f
00000050: 78c1 6d3f 9366 823f eac2 723f 9306 863f
00000060: 4e7c 703f 563a 793f 4465 7e3f 9893 7f3f
00000070: 9fb5 653f 17db 773f 1b22 793f 3ec6 613f
00000080: 6423 783f 9de6 683f 785a 863f 59cb 6b3f
00000090: ce4f 6d3f 6d25 7e3f 71f3 6e3f ecae 843f
000000a0: 63cd 7c3f d79b 6c3f 92e5 843f 1bb6 6b3f
000000b0: 95de 653f 8315 673f 14c5 753f 41c7 833f
000000c0: dede 5d3f 6ded 753f 3ece 6f3f f9ab 763f
000000d0: 3313 803f 0472 863f b366 883f de2c 7c3f
000000e0: f22a 7d3f 9526 7e3f 77bb 623f 8cce 6d3f
000000f0: c782 6d3f bf75 6b3f df74 803f b510 743f

encoder.7.bias f4 [64]
0.49217355 0.19582182 0.1613926 0.27814212 0.37387785 0.20278761 0.30571187 0.33901754
0.52167636 0.19790559 0.34023547 0.27193528 0.53056425 0.30592003 0.19626282 0.18068461
0.35675722 0.22613502 0.20348795 0.29130942 0.15166661 0.30556992 0.50800407 0.15734228
0.15106554 0.121921234 0.35712245 0.27054983 0.007641961 0.06078859 0.35937566 0.21921998
0.17723773 0.043899525 0.12921956 0.26954263 0.31951278 0.16668166 0.07416381 0.194153
0.22630936 0.33496854 0.21153945 0.57458687 0.287877 0.41294986 0.16188617 0.19051786
0.27343056 0.06770073 0.20761946 0.26340693 0.06945091 0.24568707 0.31584182 0.44127285
0.43181095 0.061456934 0.3010909 -0.1444228 0.29839718 0.36987415 0.27125737 0.2341162
00000000: 2cfe fb3e 8485 483e 1a44 253e a568 8e3e
00000010: eb6c bf3e 8ea7 4f3e 4486 9c3e b593 ad3e
00000020: 958c 053f c3a7 4a3e 5833 ae3e 1a3b 8b3e
00000030: 0fd3 073f 8da1 9c3e 1ff9 483e 6305 393e
00000040: e2a8 b63e f08f 673e 255f 503e 8226 953e
00000050: 7e4e 1b3e a973 9c3e 8e0c 023f 561e 213e
00000060: edb0 1a3e d7b1 f93d c1d8 b63e 8285 8a3e
00000070: 6a69 fa3b 75fd 783d 1600 b83e 347b 603e
00000080: cf7d 353e fdcf 333d 2252 043e 7e01 8a3e
00000090: 2e97 a33e 99ae 2a3e 32e3 973d 0bd0 463e
000000a0: a4bd 673e ff80 ab3e cc9d 583e 2018 133f
000000b0: 9d64 933e 2a6e d33e 7dc5 253e 1d17 433e
000000c0: 17ff 8b3e aea6 8a3d 329a 543e 46dd 863e
000000d0: 473c 8e3d 6495 7b3e 05b6 a13e 84ee e13e
000000e0: 5316 dd3e 44ba 7b3d 9628 9a3e 92e3 13be
000000f0: 84c7 983e 2560 bd3e 3fe2 8a3e 28bc 6f3e

encoder.7.running_mean f4 [64]
-0.30378017 -0.20759976 0.6966503 0.2765691 0.26059818 -0.0763566 -0.19115286 0.0759523
-0.080141656 0.10740367 0.0708852 0.22778118 0.22622246 -0.38956395 -0.12672757 0.14317171
0.8176775 -0.73021954 -0.74478257 0.59068763 0.4671747 0.0046298564 0.4836008 0.8633351
0.5906799 0.36961162 0.46413472 0.7732767 0.420545 -0.12090494 0.18630256 0.5321965
-0.34012395 1.0573374 0.077592455 -0.018693706 -0.08113194 0.5746678 1.2160355 -0.31221798
0.7415464 -0.49399135 0.0211933 -0.16091238 0.111221366 -0.13425179 -0.4456233 -0.37750888
0.5963732 -0.12728557 -0.42065254 -0.26668757 0.26452917 -0.38696262 0.16580571 0.24857138
0.23176172 -0.24616717 0.53786534 -0.23559722 0.2476174 0.2863417 0.25257057 0.37027928
00000000: 1389 9bbe 0895 54be ad57 323f 779a 8d3e
00000010: 206d 853e d960 9cbd 93bd 43be e18c 9b3d
00000020: 4f21 a4bd 75f6 db3d 422c 913d 783f 693e
00000030: dca6 673e ed74 c7be dfc4 01be 9b9b 123e
00000040: 5053 513f abef 3abf 12aa 3ebf 4e37 173f
00000050: 8631 ef3e 0db6 973b 869a f73e 8703 5d3f
00000060: cc36 173f bc3d bd3e 11a3 ed3e 76f5 453f
00000070: ad51 d73e 029d f7bd 19c6 3e3e 083e 083f
00000080: ba24 aebe d556 873f cbe8 9e3d 8b23 99bc
00000090: 8128 a6bd 6e1d 133f 0da7 9b3f 09db 9fbe
000000a0: fcd5 3d3f 6fec fcbe 929d ad3c 37c6 24be
000000b0: 07c8 e33d 4d79 09be bd28 e4be d848 c1be
000000c0: eaab 183f 2657 02be c55f d7be 468b 88be
000000d0: 5e70 873e f71f c6be f9c8 293e 7f89 7e3e
000000e0: f252 6d3e 3f13 7cbe 8bb1 093f 6640 71be
000000f0: 6a8f 7d3e 619b 923e ee50 813e 3f95 bd3e

encoder.7.running_var f4 [64]
0.324871 0.42115766 0.84040713 0.51700836 0.3832081 0.42786488 0.64162755 0.6475065
0.42997107 0.7049754 0.5744456 0.4223535 0.8060686 0.8065016 0.5083606 0.49477184
1.0218959 0.5276728 0.45668477 0.653231 0.5089313 0.4908126 0.49787804 0.65960693
0.5184322 0.51753026 0.44022396 0.67146045 0.25495675 0.49563515 0.64942306 0.27639255
0.47085565 0.52484566 0.795365 0.5302293 0.65448517 0.5447566 0.4340854 0.59147984
0.46455988 0.36187527 0.59219265 0.3983862 0.3750739 0.57245195 0.38625383 0.58800787
0.41466835 0.515125 0.45389697 0.4372523 0.5747652 0.52551836 0.724341 0.54151195
0.7440033 0.9234744 0.23591052 0.5000246 0.4486642 0.4032201 0.621571 0.4764758
00000000: 7e55 a63e faa1 d73e ec24 573f a95a 043f
00000010: da33 c43e 1b11 db3e b441 243f fcc2 253f
00000020: 2b25 dc3e 4579 343f de0e 133f b83e d83e
00000030: 835a 4e3f e476 4e3f ec23 023f bc52 fd3e
00000040: 7ccd 823f 9115 073f 96d2 e93e 263a 273f
00000050: 5249 023f ca4b fb3e dfe9 fe3e 00dc 283f
00000060: f9b7 043f dd7c 043f 0965 e13e d5e4 2b3f
00000070: b189 823e e4c3 fd3e 9740 263f 5383 8d3e
00000080: fe13 f13e 495c 063f 0a9d 4b3f 1bbd 073f
00000090: 578c 273f 2b75 0b3f 7140 de3e 396b 173f
000000a0: cbda ed3e b747 b93e f099 173f 47f9 cb3e
000000b0: b009 c03e 368c 123f 10c3 c53e af87 163f
000000c0: 694f d43e 3bdf 033f 2f65 e83e 89df df3e
000000d0: d023 133f 5f88 063f 696e 393f 87a0 0a3f
000000e0: 0077 3e3f d168 6c3f 8792 713e 9d01 003f
000000f0: 50b7 e53e dd72 ce3e 471f 1f3f a3f4 f33e
